Model: "model"
__________________________________________________________________________________________________
Layer (type)                    Output Shape         Param #     Connected to                     
==================================================================================================
Entrada_audio (InputLayer)      [(None, 257, 256)]   0                                            
__________________________________________________________________________________________________
tf_op_layer_expand_audio (Tenso [(None, 257, 256, 1) 0           Entrada_audio[0][0]              
__________________________________________________________________________________________________
Crop_audio (Cropping2D)         (None, 256, 256, 1)  0           tf_op_layer_expand_audio[0][0]   
__________________________________________________________________________________________________
conv1 (Conv2D)                  (None, 128, 128, 8)  136         Crop_audio[0][0]                 
__________________________________________________________________________________________________
leaky_re_lu (LeakyReLU)         (None, 128, 128, 8)  0           conv1[0][0]                      
__________________________________________________________________________________________________
conv2 (Conv2D)                  (None, 64, 64, 16)   2064        leaky_re_lu[0][0]                
__________________________________________________________________________________________________
batch_normalization (BatchNorma (None, 64, 64, 16)   64          conv2[0][0]                      
__________________________________________________________________________________________________
leaky_re_lu_1 (LeakyReLU)       (None, 64, 64, 16)   0           batch_normalization[0][0]        
__________________________________________________________________________________________________
neck (Conv2D)                   (None, 32, 32, 32)   8224        leaky_re_lu_1[0][0]              
__________________________________________________________________________________________________
batch_normalization_1 (BatchNor (None, 32, 32, 32)   128         neck[0][0]                       
__________________________________________________________________________________________________
leaky_re_lu_2 (LeakyReLU)       (None, 32, 32, 32)   0           batch_normalization_1[0][0]      
__________________________________________________________________________________________________
up_sampling2d (UpSampling2D)    (None, 64, 64, 32)   0           leaky_re_lu_2[0][0]              
__________________________________________________________________________________________________
dconv1 (Conv2D)                 (None, 64, 64, 16)   8208        up_sampling2d[0][0]              
__________________________________________________________________________________________________
batch_normalization_2 (BatchNor (None, 64, 64, 16)   64          dconv1[0][0]                     
__________________________________________________________________________________________________
re_lu (ReLU)                    (None, 64, 64, 16)   0           batch_normalization_2[0][0]      
__________________________________________________________________________________________________
concatenate (Concatenate)       (None, 64, 64, 32)   0           re_lu[0][0]                      
                                                                 leaky_re_lu_1[0][0]              
__________________________________________________________________________________________________
up_sampling2d_1 (UpSampling2D)  (None, 128, 128, 32) 0           concatenate[0][0]                
__________________________________________________________________________________________________
dconv2 (Conv2D)                 (None, 128, 128, 8)  4104        up_sampling2d_1[0][0]            
__________________________________________________________________________________________________
batch_normalization_3 (BatchNor (None, 128, 128, 8)  32          dconv2[0][0]                     
__________________________________________________________________________________________________
re_lu_1 (ReLU)                  (None, 128, 128, 8)  0           batch_normalization_3[0][0]      
__________________________________________________________________________________________________
concatenate_1 (Concatenate)     (None, 128, 128, 16) 0           re_lu_1[0][0]                    
                                                                 leaky_re_lu[0][0]                
__________________________________________________________________________________________________
up_sampling2d_2 (UpSampling2D)  (None, 256, 256, 16) 0           concatenate_1[0][0]              
__________________________________________________________________________________________________
Entrada_mascara (InputLayer)    [(None, 257, 256)]   0                                            
__________________________________________________________________________________________________
out (Conv2D)                    (None, 256, 256, 1)  257         up_sampling2d_2[0][0]            
__________________________________________________________________________________________________
tf_op_layer_expand_mask (Tensor [(None, 257, 256, 1) 0           Entrada_mascara[0][0]            
__________________________________________________________________________________________________
tf_op_layer_Tanh (TensorFlowOpL [(None, 256, 256, 1) 0           out[0][0]                        
__________________________________________________________________________________________________
Crop_mask (Cropping2D)          (None, 256, 256, 1)  0           tf_op_layer_expand_mask[0][0]    
__________________________________________________________________________________________________
mse (MSE)                       (None, 256, 256, 1)  0           tf_op_layer_Tanh[0][0]           
                                                                 Crop_mask[0][0]                  
==================================================================================================
Total params: 23,281
Trainable params: 23,137
Non-trainable params: 144
__________________________________________________________________________________________________
